…
r_ddp=True, resume_from_checkpoint=None, seed=0, stochastic_weight_avg=False, sync_batchnorm=False, terminate_on_nan=False, test=False, tot_updates=700000, tpu_cores=None, track_grad_norm=-1, truncated_bptt_steps=None, val_check_interval=1.0, validate=False, warmup_updates=3000, weight_decay=0.0, weights_save_path=None, weights_summary='top')
 > uspto loaded!
{'num_class': 1, 'loss_fn': <function cross_entropy at 0x7fedc7f46170>, 'metric': 'train_loss', 'metric_mode': 'min', 'evaluator': 'none', 'dataset': UsptoDataset(460545), 'max_node': 420}
 > dataset info ends
GraphFormer(
  (atom_encoder): Embedding(4737, 256, padding_idx=0)
  (edge_encoder): Embedding(769, 12, padding_idx=0)
  (rel_pos_encoder): Embedding(512, 12, padding_idx=0)
  (in_degree_encoder): Embedding(512, 256, padding_idx=0)
  (out_degree_encoder): Embedding(512, 256, padding_idx=0)
  (input_dropout): Dropout(p=0.05, inplace=False)
  (input_dropout2d): Dropout2d(p=0.05, inplace=False)
  (gelu): GELU()
  (atom_edge_encoder): Embedding(543, 256, padding_idx=0)
  (centrality_encoder): Embedding(50, 12, padding_idx=0)
  (lpe_linear): Linear(in_features=2, out_features=12, bias=True)
  (lpe_linear3): Linear(in_features=30, out_features=12, bias=True)
  (position): PositionalEncoding(
    (dropout): Dropout(p=0, inplace=False)
  )
  (outp_logits): Linear(in_features=256, out_features=531, bias=True)
  (decoderLayers): ModuleList(
    (0): DecoderLayer(
      (self_attention_norm): LayerNorm((256,), eps=1e-05, elementwise_affine=True)
      (self_mask_attention): MultiHeadAttention(
        (linear_q): Linear(in_features=256, out_features=252, bias=True)
        (linear_k): Linear(in_features=256, out_features=252, bias=True)
        (linear_v): Linear(in_features=256, out_features=252, bias=True)
        (att_dropout): Dropout(p=0.1, inplace=False)
        (output_layer): Linear(in_features=252, out_features=256, bias=True)
      )
      (self_attention_dropout): Dropout(p=0.1, inplace=False)
      (mem_att_sublayer_norm): LayerNorm((256,), eps=1e-05, elementwise_affine=True)
      (self_mem_attention): MultiHeadAttention(
        (linear_q): Linear(in_features=256, out_features=252, bias=True)
        (linear_k): Linear(in_features=256, out_features=252, bias=True)
        (linear_v): Linear(in_features=256, out_features=252, bias=True)
        (att_dropout): Dropout(p=0.1, inplace=False)
        (output_layer): Linear(in_features=252, out_features=256, bias=True)
      )
      (self_mem_attention_dropout): Dropout(p=0.1, inplace=False)
      (ffn_norm): LayerNorm((256,), eps=1e-05, elementwise_affine=True)
      (ffn): FeedForwardNetwork(
        (layer1): Linear(in_features=256, out_features=1024, bias=True)
        (gelu): GELU()
        (layer2): Linear(in_features=1024, out_features=256, bias=True)
      )
      (ffn_dropout): Dropout(p=0.1, inplace=False)
    )
    (1): DecoderLayer(
      (self_attention_norm): LayerNorm((256,), eps=1e-05, elementwise_affine=True)
      (self_mask_attention): MultiHeadAttention(
        (linear_q): Linear(in_features=256, out_features=252, bias=True)
        (linear_k): Linear(in_features=256, out_features=252, bias=True)
        (linear_v): Linear(in_features=256, out_features=252, bias=True)
        (att_dropout): Dropout(p=0.1, inplace=False)
        (output_layer): Linear(in_features=252, out_features=256, bias=True)
      )
      (self_attention_dropout): Dropout(p=0.1, inplace=False)
      (mem_att_sublayer_norm): LayerNorm((256,), eps=1e-05, elementwise_affine=True)
      (self_mem_attention): MultiHeadAttention(
        (linear_q): Linear(in_features=256, out_features=252, bias=True)
        (linear_k): Linear(in_features=256, out_features=252, bias=True)
        (linear_v): Linear(in_features=256, out_features=252, bias=True)
        (att_dropout): Dropout(p=0.1, inplace=False)
        (output_layer): Linear(in_features=252, out_features=256, bias=True)
      )
      (self_mem_attention_dropout): Dropout(p=0.1, inplace=False)
      (ffn_norm): LayerNorm((256,), eps=1e-05, elementwise_affine=True)
      (ffn): FeedForwardNetwork(
        (layer1): Linear(in_features=256, out_features=1024, bias=True)
        (gelu): GELU()
        (layer2): Linear(in_features=1024, out_features=256, bias=True)
      )
      (ffn_dropout): Dropout(p=0.1, inplace=False)
    )
    (2): DecoderLayer(
      (self_attention_norm): LayerNorm((256,), eps=1e-05, elementwise_affine=True)
      (self_mask_attention): MultiHeadAttention(
        (linear_q): Linear(in_features=256, out_features=252, bias=True)
        (linear_k): Linear(in_features=256, out_features=252, bias=True)
        (linear_v): Linear(in_features=256, out_features=252, bias=True)
        (att_dropout): Dropout(p=0.1, inplace=False)
        (output_layer): Linear(in_features=252, out_features=256, bias=True)
      )
      (self_attention_dropout): Dropout(p=0.1, inplace=False)
      (mem_att_sublayer_norm): LayerNorm((256,), eps=1e-05, elementwise_affine=True)
      (self_mem_attention): MultiHeadAttention(
        (linear_q): Linear(in_features=256, out_features=252, bias=True)
        (linear_k): Linear(in_features=256, out_features=252, bias=True)
        (linear_v): Linear(in_features=256, out_features=252, bias=True)
        (att_dropout): Dropout(p=0.1, inplace=False)
        (output_layer): Linear(in_features=252, out_features=256, bias=True)
      )
      (self_mem_attention_dropout): Dropout(p=0.1, inplace=False)
      (ffn_norm): LayerNorm((256,), eps=1e-05, elementwise_affine=True)
      (ffn): FeedForwardNetwork(
        (layer1): Linear(in_features=256, out_features=1024, bias=True)
        (gelu): GELU()
        (layer2): Linear(in_features=1024, out_features=256, bias=True)
      )
      (ffn_dropout): Dropout(p=0.1, inplace=False)
    )
    (3): DecoderLayer(
      (self_attention_norm): LayerNorm((256,), eps=1e-05, elementwise_affine=True)
      (self_mask_attention): MultiHeadAttention(
        (linear_q): Linear(in_features=256, out_features=252, bias=True)
        (linear_k): Linear(in_features=256, out_features=252, bias=True)
        (linear_v): Linear(in_features=256, out_features=252, bias=True)
        (att_dropout): Dropout(p=0.1, inplace=False)
        (output_layer): Linear(in_features=252, out_features=256, bias=True)
      )
      (self_attention_dropout): Dropout(p=0.1, inplace=False)
      (mem_att_sublayer_norm): LayerNorm((256,), eps=1e-05, elementwise_affine=True)
      (self_mem_attention): MultiHeadAttention(
        (linear_q): Linear(in_features=256, out_features=252, bias=True)
        (linear_k): Linear(in_features=256, out_features=252, bias=True)
        (linear_v): Linear(in_features=256, out_features=252, bias=True)
        (att_dropout): Dropout(p=0.1, inplace=False)
        (output_layer): Linear(in_features=252, out_features=256, bias=True)
      )
      (self_mem_attention_dropout): Dropout(p=0.1, inplace=False)
      (ffn_norm): LayerNorm((256,), eps=1e-05, elementwise_affine=True)
      (ffn): FeedForwardNetwork(
        (layer1): Linear(in_features=256, out_features=1024, bias=True)
        (gelu): GELU()
        (layer2): Linear(in_features=1024, out_features=256, bias=True)
      )
      (ffn_dropout): Dropout(p=0.1, inplace=False)
    )
    (4): DecoderLayer(
      (self_attention_norm): LayerNorm((256,), eps=1e-05, elementwise_affine=True)
      (self_mask_attention): MultiHeadAttention(
        (linear_q): Linear(in_features=256, out_features=252, bias=True)
        (linear_k): Linear(in_features=256, out_features=252, bias=True)
        (linear_v): Linear(in_features=256, out_features=252, bias=True)
        (att_dropout): Dropout(p=0.1, inplace=False)
        (output_layer): Linear(in_features=252, out_features=256, bias=True)
      )
      (self_attention_dropout): Dropout(p=0.1, inplace=False)
      (mem_att_sublayer_norm): LayerNorm((256,), eps=1e-05, elementwise_affine=True)
      (self_mem_attention): MultiHeadAttention(
        (linear_q): Linear(in_features=256, out_features=252, bias=True)
        (linear_k): Linear(in_features=256, out_features=252, bias=True)
        (linear_v): Linear(in_features=256, out_features=252, bias=True)
        (att_dropout): Dropout(p=0.1, inplace=False)
        (output_layer): Linear(in_features=252, out_features=256, bias=True)
      )
      (self_mem_attention_dropout): Dropout(p=0.1, inplace=False)
      (ffn_norm): LayerNorm((256,), eps=1e-05, elementwise_affine=True)
      (ffn): FeedForwardNetwork(
        (layer1): Linear(in_features=256, out_features=1024, bias=True)
        (gelu): GELU()
        (layer2): Linear(in_features=1024, out_features=256, bias=True)
      )
      (ffn_dropout): Dropout(p=0.1, inplace=False)
    )
    (5): DecoderLayer(
      (self_attention_norm): LayerNorm((256,), eps=1e-05, elementwise_affine=True)
      (self_mask_attention): MultiHeadAttention(
        (linear_q): Linear(in_features=256, out_features=252, bias=True)
        (linear_k): Linear(in_features=256, out_features=252, bias=True)
        (linear_v): Linear(in_features=256, out_features=252, bias=True)
        (att_dropout): Dropout(p=0.1, inplace=False)
        (output_layer): Linear(in_features=252, out_features=256, bias=True)
      )
      (self_attention_dropout): Dropout(p=0.1, inplace=False)
      (mem_att_sublayer_norm): LayerNorm((256,), eps=1e-05, elementwise_affine=True)
      (self_mem_attention): MultiHeadAttention(
        (linear_q): Linear(in_features=256, out_features=252, bias=True)
        (linear_k): Linear(in_features=256, out_features=252, bias=True)
        (linear_v): Linear(in_features=256, out_features=252, bias=True)
        (att_dropout): Dropout(p=0.1, inplace=False)
        (output_layer): Linear(in_features=252, out_features=256, bias=True)
      )
      (self_mem_attention_dropout): Dropout(p=0.1, inplace=False)
      (ffn_norm): LayerNorm((256,), eps=1e-05, elementwise_affine=True)
      (ffn): FeedForwardNetwork(
        (layer1): Linear(in_features=256, out_features=1024, bias=True)
        (gelu): GELU()
        (layer2): Linear(in_features=1024, out_features=256, bias=True)
      )
      (ffn_dropout): Dropout(p=0.1, inplace=False)
    )
  )
  (layers): ModuleList(
    (0): EncoderLayer(
      (self_attention_norm): LayerNorm((256,), eps=1e-05, elementwise_affine=True)
      (self_attention): MultiHeadAttention(
        (linear_q): Linear(in_features=256, out_features=252, bias=True)
        (linear_k): Linear(in_features=256, out_features=252, bias=True)
        (linear_v): Linear(in_features=256, out_features=252, bias=True)
        (att_dropout): Dropout(p=0.1, inplace=False)
        (output_layer): Linear(in_features=252, out_features=256, bias=True)
      )
      (self_attention_dropout): Dropout(p=0.1, inplace=False)
      (ffn_norm): LayerNorm((256,), eps=1e-05, elementwise_affine=True)
      (ffn): FeedForwardNetwork(
        (layer1): Linear(in_features=256, out_features=1024, bias=True)
        (gelu): GELU()
        (layer2): Linear(in_features=1024, out_features=256, bias=True)
      )
      (ffn_dropout): Dropout(p=0.1, inplace=False)
    )
    (1): EncoderLayer(
      (self_attention_norm): LayerNorm((256,), eps=1e-05, elementwise_affine=True)
      (self_attention): MultiHeadAttention(
        (linear_q): Linear(in_features=256, out_features=252, bias=True)
        (linear_k): Linear(in_features=256, out_features=252, bias=True)
        (linear_v): Linear(in_features=256, out_features=252, bias=True)
        (att_dropout): Dropout(p=0.1, inplace=False)
        (output_layer): Linear(in_features=252, out_features=256, bias=True)
      )
      (self_attention_dropout): Dropout(p=0.1, inplace=False)
      (ffn_norm): LayerNorm((256,), eps=1e-05, elementwise_affine=True)
      (ffn): FeedForwardNetwork(
        (layer1): Linear(in_features=256, out_features=1024, bias=True)
        (gelu): GELU()
        (layer2): Linear(in_features=1024, out_features=256, bias=True)
      )
      (ffn_dropout): Dropout(p=0.1, inplace=False)
    )
    (2): EncoderLayer(
      (self_attention_norm): LayerNorm((256,), eps=1e-05, elementwise_affine=True)
      (self_attention): MultiHeadAttention(
        (linear_q): Linear(in_features=256, out_features=252, bias=True)
        (linear_k): Linear(in_features=256, out_features=252, bias=True)
        (linear_v): Linear(in_features=256, out_features=252, bias=True)
        (att_dropout): Dropout(p=0.1, inplace=False)
        (output_layer): Linear(in_features=252, out_features=256, bias=True)
      )
      (self_attention_dropout): Dropout(p=0.1, inplace=False)
      (ffn_norm): LayerNorm((256,), eps=1e-05, elementwise_affine=True)
      (ffn): FeedForwardNetwork(
        (layer1): Linear(in_features=256, out_features=1024, bias=True)
        (gelu): GELU()
        (layer2): Linear(in_features=1024, out_features=256, bias=True)
      )
      (ffn_dropout): Dropout(p=0.1, inplace=False)
    )
    (3): EncoderLayer(
      (self_attention_norm): LayerNorm((256,), eps=1e-05, elementwise_affine=True)
      (self_attention): MultiHeadAttention(
        (linear_q): Linear(in_features=256, out_features=252, bias=True)
        (linear_k): Linear(in_features=256, out_features=252, bias=True)
        (linear_v): Linear(in_features=256, out_features=252, bias=True)
        (att_dropout): Dropout(p=0.1, inplace=False)
        (output_layer): Linear(in_features=252, out_features=256, bias=True)
      )
      (self_attention_dropout): Dropout(p=0.1, inplace=False)
      (ffn_norm): LayerNorm((256,), eps=1e-05, elementwise_affine=True)
      (ffn): FeedForwardNetwork(
        (layer1): Linear(in_features=256, out_features=1024, bias=True)
        (gelu): GELU()
        (layer2): Linear(in_features=1024, out_features=256, bias=True)
      )
      (ffn_dropout): Dropout(p=0.1, inplace=False)
    )
    (4): EncoderLayer(
      (self_attention_norm): LayerNorm((256,), eps=1e-05, elementwise_affine=True)
      (self_attention): MultiHeadAttention(
        (linear_q): Linear(in_features=256, out_features=252, bias=True)
        (linear_k): Linear(in_features=256, out_features=252, bias=True)
        (linear_v): Linear(in_features=256, out_features=252, bias=True)
        (att_dropout): Dropout(p=0.1, inplace=False)
        (output_layer): Linear(in_features=252, out_features=256, bias=True)
      )
      (self_attention_dropout): Dropout(p=0.1, inplace=False)
      (ffn_norm): LayerNorm((256,), eps=1e-05, elementwise_affine=True)
      (ffn): FeedForwardNetwork(
        (layer1): Linear(in_features=256, out_features=1024, bias=True)
        (gelu): GELU()
        (layer2): Linear(in_features=1024, out_features=256, bias=True)
      )
      (ffn_dropout): Dropout(p=0.1, inplace=False)
    )
    (5): EncoderLayer(
      (self_attention_norm): LayerNorm((256,), eps=1e-05, elementwise_affine=True)
      (self_attention): MultiHeadAttention(
        (linear_q): Linear(in_features=256, out_features=252, bias=True)
        (linear_k): Linear(in_features=256, out_features=252, bias=True)
        (linear_v): Linear(in_features=256, out_features=252, bias=True)
        (att_dropout): Dropout(p=0.1, inplace=False)
        (output_layer): Linear(in_features=252, out_features=256, bias=True)
      )
      (self_attention_dropout): Dropout(p=0.1, inplace=False)
      (ffn_norm): LayerNorm((256,), eps=1e-05, elementwise_affine=True)
      (ffn): FeedForwardNetwork(
        (layer1): Linear(in_features=256, out_features=1024, bias=True)
        (gelu): GELU()
        (layer2): Linear(in_features=1024, out_features=256, bias=True)
      )
      (ffn_dropout): Dropout(p=0.1, inplace=False)
    )
  )
  (graph_token): Embedding(11, 256)
  (graph_token_virtual_distance): Embedding(1, 12)
  (rbf): RBFLayer()
  (rel_pos_3d_proj): Linear(in_features=256, out_features=12, bias=True)
)
total params: 12758351
args.resume_from_checkpoint /home/jovyan/g2gt_github/src/lightning_logs/checkpoints/last.ckpt
len(val_dataloader) 5005
Namespace(accelerator='ddp', accumulate_grad_batches=2, amp_backend='native', amp_level='O2', attention_dropout_rate=0.1, auto_lr_find=False, auto_scale_batch_size=False, auto_select_gpus=False, batch_size=15, b
…
seed=0, stochastic_weight_avg=False, sync_batchnorm=False, terminate_on_nan=False, test=False, tot_updates=700000, tpu_cores=None, track_grad_norm=-1, truncated_bptt_steps=None, val_check_interval=1.0, validate=False, warmup_updates=3000, weight_decay=0.0, weights_save_path=None, weights_summary='top')
Converting SMILES strings into graphs...
 > uspto loaded!
{'num_class': 1, 'loss_fn': <function cross_entropy at 0x7ff656256170>, 'metric': 'train_loss', 'metric_mode': 'min', 'evaluator': 'none', 'dataset': UsptoDataset(460545), 'max_node': 420}
 > dataset info ends
GraphFormer(
  (atom_encoder): Embedding(4737, 768, padding_idx=0)
  (edge_encoder): Embedding(769, 24, padding_idx=0)
  (rel_pos_encoder): Embedding(512, 24, padding_idx=0)
  (in_degree_encoder): Embedding(512, 768, padding_idx=0)
  (out_degree_encoder): Embedding(512, 768, padding_idx=0)
  (input_dropout): Dropout(p=0.05, inplace=False)
  (input_dropout2d): Dropout2d(p=0.05, inplace=False)
  (gelu): GELU()
  (atom_edge_encoder): Embedding(552, 768, padding_idx=0)
  (centrality_encoder): Embedding(50, 24, padding_idx=0)
  (lpe_linear): Linear(in_features=2, out_features=24, bias=True)
  (lpe_linear3): Linear(in_features=30, out_features=24, bias=True)
  (position): PositionalEncoding(
    (dropout): Dropout(p=0, inplace=False)
  )
  (outp_logits): Linear(in_features=768, out_features=531, bias=True)
  (decoderLayers): ModuleList(
    (0): DecoderLayer(
      (self_attention_norm): LayerNorm((768,), eps=1e-05, elementwise_affine=True)
      (self_mask_attention): MultiHeadAttention(
        (linear_q): Linear(in_features=768, out_features=768, bias=True)
        (linear_k): Linear(in_features=768, out_features=768, bias=True)
        (linear_v): Linear(in_features=768, out_features=768, bias=True)
        (att_dropout): Dropout(p=0.1, inplace=False)
        (output_layer): Linear(in_features=768, out_features=768, bias=True)
      )
      (self_attention_dropout): Dropout(p=0.1, inplace=False)
      (mem_att_sublayer_norm): LayerNorm((768,), eps=1e-05, elementwise_affine=True)
      (self_mem_attention): MultiHeadAttention(
        (linear_q): Linear(in_features=768, out_features=768, bias=True)
        (linear_k): Linear(in_features=768, out_features=768, bias=True)
        (linear_v): Linear(in_features=768, out_features=768, bias=True)
        (att_dropout): Dropout(p=0.1, inplace=False)
        (output_layer): Linear(in_features=768, out_features=768, bias=True)
      )
      (self_mem_attention_dropout): Dropout(p=0.1, inplace=False)
      (ffn_norm): LayerNorm((768,), eps=1e-05, elementwise_affine=True)
      (ffn): FeedForwardNetwork(
        (layer1): Linear(in_features=768, out_features=2048, bias=True)
        (gelu): GELU()
        (layer2): Linear(in_features=2048, out_features=768, bias=True)
      )
      (ffn_dropout): Dropout(p=0.1, inplace=False)
    )
    (1): DecoderLayer(
      (self_attention_norm): LayerNorm((768,), eps=1e-05, elementwise_affine=True)
      (self_mask_attention): MultiHeadAttention(
        (linear_q): Linear(in_features=768, out_features=768, bias=True)
        (linear_k): Linear(in_features=768, out_features=768, bias=True)
        (linear_v): Linear(in_features=768, out_features=768, bias=True)
        (att_dropout): Dropout(p=0.1, inplace=False)
        (output_layer): Linear(in_features=768, out_features=768, bias=True)
      )
      (self_attention_dropout): Dropout(p=0.1, inplace=False)
      (mem_att_sublayer_norm): LayerNorm((768,), eps=1e-05, elementwise_affine=True)
      (self_mem_attention): MultiHeadAttention(
        (linear_q): Linear(in_features=768, out_features=768, bias=True)
        (linear_k): Linear(in_features=768, out_features=768, bias=True)
        (linear_v): Linear(in_features=768, out_features=768, bias=True)
        (att_dropout): Dropout(p=0.1, inplace=False)
        (output_layer): Linear(in_features=768, out_features=768, bias=True)
      )
      (self_mem_attention_dropout): Dropout(p=0.1, inplace=False)
      (ffn_norm): LayerNorm((768,), eps=1e-05, elementwise_affine=True)
      (ffn): FeedForwardNetwork(
        (layer1): Linear(in_features=768, out_features=2048, bias=True)
        (gelu): GELU()
        (layer2): Linear(in_features=2048, out_features=768, bias=True)
      )
      (ffn_dropout): Dropout(p=0.1, inplace=False)
    )
    (2): DecoderLayer(
      (self_attention_norm): LayerNorm((768,), eps=1e-05, elementwise_affine=True)
      (self_mask_attention): MultiHeadAttention(
        (linear_q): Linear(in_features=768, out_features=768, bias=True)
        (linear_k): Linear(in_features=768, out_features=768, bias=True)
        (linear_v): Linear(in_features=768, out_features=768, bias=True)
        (att_dropout): Dropout(p=0.1, inplace=False)
        (output_layer): Linear(in_features=768, out_features=768, bias=True)
      )
      (self_attention_dropout): Dropout(p=0.1, inplace=False)
      (mem_att_sublayer_norm): LayerNorm((768,), eps=1e-05, elementwise_affine=True)
      (self_mem_attention): MultiHeadAttention(
        (linear_q): Linear(in_features=768, out_features=768, bias=True)
        (linear_k): Linear(in_features=768, out_features=768, bias=True)
        (linear_v): Linear(in_features=768, out_features=768, bias=True)
        (att_dropout): Dropout(p=0.1, inplace=False)
        (output_layer): Linear(in_features=768, out_features=768, bias=True)
      )
      (self_mem_attention_dropout): Dropout(p=0.1, inplace=False)
      (ffn_norm): LayerNorm((768,), eps=1e-05, elementwise_affine=True)
      (ffn): FeedForwardNetwork(
        (layer1): Linear(in_features=768, out_features=2048, bias=True)
        (gelu): GELU()
        (layer2): Linear(in_features=2048, out_features=768, bias=True)
      )
      (ffn_dropout): Dropout(p=0.1, inplace=False)
    )
    (3): DecoderLayer(
      (self_attention_norm): LayerNorm((768,), eps=1e-05, elementwise_affine=True)
      (self_mask_attention): MultiHeadAttention(
        (linear_q): Linear(in_features=768, out_features=768, bias=True)
        (linear_k): Linear(in_features=768, out_features=768, bias=True)
        (linear_v): Linear(in_features=768, out_features=768, bias=True)
        (att_dropout): Dropout(p=0.1, inplace=False)
        (output_layer): Linear(in_features=768, out_features=768, bias=True)
      )
      (self_attention_dropout): Dropout(p=0.1, inplace=False)
      (mem_att_sublayer_norm): LayerNorm((768,), eps=1e-05, elementwise_affine=True)
      (self_mem_attention): MultiHeadAttention(
        (linear_q): Linear(in_features=768, out_features=768, bias=True)
        (linear_k): Linear(in_features=768, out_features=768, bias=True)
        (linear_v): Linear(in_features=768, out_features=768, bias=True)
        (att_dropout): Dropout(p=0.1, inplace=False)
        (output_layer): Linear(in_features=768, out_features=768, bias=True)
      )
      (self_mem_attention_dropout): Dropout(p=0.1, inplace=False)
      (ffn_norm): LayerNorm((768,), eps=1e-05, elementwise_affine=True)
      (ffn): FeedForwardNetwork(
        (layer1): Linear(in_features=768, out_features=2048, bias=True)
        (gelu): GELU()
        (layer2): Linear(in_features=2048, out_features=768, bias=True)
      )
      (ffn_dropout): Dropout(p=0.1, inplace=False)
    )
    (4): DecoderLayer(
      (self_attention_norm): LayerNorm((768,), eps=1e-05, elementwise_affine=True)
      (self_mask_attention): MultiHeadAttention(
        (linear_q): Linear(in_features=768, out_features=768, bias=True)
        (linear_k): Linear(in_features=768, out_features=768, bias=True)
        (linear_v): Linear(in_features=768, out_features=768, bias=True)
        (att_dropout): Dropout(p=0.1, inplace=False)
        (output_layer): Linear(in_features=768, out_features=768, bias=True)
      )
      (self_attention_dropout): Dropout(p=0.1, inplace=False)
      (mem_att_sublayer_norm): LayerNorm((768,), eps=1e-05, elementwise_affine=True)
      (self_mem_attention): MultiHeadAttention(
        (linear_q): Linear(in_features=768, out_features=768, bias=True)
        (linear_k): Linear(in_features=768, out_features=768, bias=True)
        (linear_v): Linear(in_features=768, out_features=768, bias=True)
        (att_dropout): Dropout(p=0.1, inplace=False)
        (output_layer): Linear(in_features=768, out_features=768, bias=True)
      )
      (self_mem_attention_dropout): Dropout(p=0.1, inplace=False)
      (ffn_norm): LayerNorm((768,), eps=1e-05, elementwise_affine=True)
      (ffn): FeedForwardNetwork(
        (layer1): Linear(in_features=768, out_features=2048, bias=True)
        (gelu): GELU()
        (layer2): Linear(in_features=2048, out_features=768, bias=True)
      )
      (ffn_dropout): Dropout(p=0.1, inplace=False)
    )
    (5): DecoderLayer(
      (self_attention_norm): LayerNorm((768,), eps=1e-05, elementwise_affine=True)
      (self_mask_attention): MultiHeadAttention(
        (linear_q): Linear(in_features=768, out_features=768, bias=True)
        (linear_k): Linear(in_features=768, out_features=768, bias=True)
        (linear_v): Linear(in_features=768, out_features=768, bias=True)
        (att_dropout): Dropout(p=0.1, inplace=False)
        (output_layer): Linear(in_features=768, out_features=768, bias=True)
      )
      (self_attention_dropout): Dropout(p=0.1, inplace=False)
      (mem_att_sublayer_norm): LayerNorm((768,), eps=1e-05, elementwise_affine=True)
      (self_mem_attention): MultiHeadAttention(
        (linear_q): Linear(in_features=768, out_features=768, bias=True)
        (linear_k): Linear(in_features=768, out_features=768, bias=True)
        (linear_v): Linear(in_features=768, out_features=768, bias=True)
        (att_dropout): Dropout(p=0.1, inplace=False)
        (output_layer): Linear(in_features=768, out_features=768, bias=True)
      )
      (self_mem_attention_dropout): Dropout(p=0.1, inplace=False)
      (ffn_norm): LayerNorm((768,), eps=1e-05, elementwise_affine=True)
      (ffn): FeedForwardNetwork(
        (layer1): Linear(in_features=768, out_features=2048, bias=True)
        (gelu): GELU()
        (layer2): Linear(in_features=2048, out_features=768, bias=True)
      )
      (ffn_dropout): Dropout(p=0.1, inplace=False)
    )
  )
  (layers): ModuleList(
    (0): EncoderLayer(
      (self_attention_norm): LayerNorm((768,), eps=1e-05, elementwise_affine=True)
      (self_attention): MultiHeadAttention(
        (linear_q): Linear(in_features=768, out_features=768, bias=True)
        (linear_k): Linear(in_features=768, out_features=768, bias=True)
        (linear_v): Linear(in_features=768, out_features=768, bias=True)
        (att_dropout): Dropout(p=0.1, inplace=False)
        (output_layer): Linear(in_features=768, out_features=768, bias=True)
      )
      (self_attention_dropout): Dropout(p=0.1, inplace=False)
      (ffn_norm): LayerNorm((768,), eps=1e-05, elementwise_affine=True)
      (ffn): FeedForwardNetwork(
        (layer1): Linear(in_features=768, out_features=2048, bias=True)
        (gelu): GELU()
        (layer2): Linear(in_features=2048, out_features=768, bias=True)
      )
      (ffn_dropout): Dropout(p=0.1, inplace=False)
    )
    (1): EncoderLayer(
      (self_attention_norm): LayerNorm((768,), eps=1e-05, elementwise_affine=True)
      (self_attention): MultiHeadAttention(
        (linear_q): Linear(in_features=768, out_features=768, bias=True)
        (linear_k): Linear(in_features=768, out_features=768, bias=True)
        (linear_v): Linear(in_features=768, out_features=768, bias=True)
        (att_dropout): Dropout(p=0.1, inplace=False)
        (output_layer): Linear(in_features=768, out_features=768, bias=True)
      )
      (self_attention_dropout): Dropout(p=0.1, inplace=False)
      (ffn_norm): LayerNorm((768,), eps=1e-05, elementwise_affine=True)
      (ffn): FeedForwardNetwork(
        (layer1): Linear(in_features=768, out_features=2048, bias=True)
        (gelu): GELU()
        (layer2): Linear(in_features=2048, out_features=768, bias=True)
      )
      (ffn_dropout): Dropout(p=0.1, inplace=False)
    )
    (2): EncoderLayer(
      (self_attention_norm): LayerNorm((768,), eps=1e-05, elementwise_affine=True)
      (self_attention): MultiHeadAttention(
        (linear_q): Linear(in_features=768, out_features=768, bias=True)
        (linear_k): Linear(in_features=768, out_features=768, bias=True)
        (linear_v): Linear(in_features=768, out_features=768, bias=True)
        (att_dropout): Dropout(p=0.1, inplace=False)
        (output_layer): Linear(in_features=768, out_features=768, bias=True)
      )
      (self_attention_dropout): Dropout(p=0.1, inplace=False)
      (ffn_norm): LayerNorm((768,), eps=1e-05, elementwise_affine=True)
      (ffn): FeedForwardNetwork(
        (layer1): Linear(in_features=768, out_features=2048, bias=True)
        (gelu): GELU()
        (layer2): Linear(in_features=2048, out_features=768, bias=True)
      )
      (ffn_dropout): Dropout(p=0.1, inplace=False)
    )
    (3): EncoderLayer(
      (self_attention_norm): LayerNorm((768,), eps=1e-05, elementwise_affine=True)
      (self_attention): MultiHeadAttention(
        (linear_q): Linear(in_features=768, out_features=768, bias=True)
        (linear_k): Linear(in_features=768, out_features=768, bias=True)
        (linear_v): Linear(in_features=768, out_features=768, bias=True)
        (att_dropout): Dropout(p=0.1, inplace=False)
        (output_layer): Linear(in_features=768, out_features=768, bias=True)
      )
      (self_attention_dropout): Dropout(p=0.1, inplace=False)
      (ffn_norm): LayerNorm((768,), eps=1e-05, elementwise_affine=True)
      (ffn): FeedForwardNetwork(
        (layer1): Linear(in_features=768, out_features=2048, bias=True)
        (gelu): GELU()
        (layer2): Linear(in_features=2048, out_features=768, bias=True)
      )
      (ffn_dropout): Dropout(p=0.1, inplace=False)
    )
    (4): EncoderLayer(
      (self_attention_norm): LayerNorm((768,), eps=1e-05, elementwise_affine=True)
      (self_attention): MultiHeadAttention(
        (linear_q): Linear(in_features=768, out_features=768, bias=True)
        (linear_k): Linear(in_features=768, out_features=768, bias=True)
        (linear_v): Linear(in_features=768, out_features=768, bias=True)
        (att_dropout): Dropout(p=0.1, inplace=False)
        (output_layer): Linear(in_features=768, out_features=768, bias=True)
      )
      (self_attention_dropout): Dropout(p=0.1, inplace=False)
      (ffn_norm): LayerNorm((768,), eps=1e-05, elementwise_affine=True)
      (ffn): FeedForwardNetwork(
        (layer1): Linear(in_features=768, out_features=2048, bias=True)
        (gelu): GELU()
        (layer2): Linear(in_features=2048, out_features=768, bias=True)
      )
      (ffn_dropout): Dropout(p=0.1, inplace=False)
    )
    (5): EncoderLayer(
      (self_attention_norm): LayerNorm((768,), eps=1e-05, elementwise_affine=True)
      (self_attention): MultiHeadAttention(
        (linear_q): Linear(in_features=768, out_features=768, bias=True)
        (linear_k): Linear(in_features=768, out_features=768, bias=True)
        (linear_v): Linear(in_features=768, out_features=768, bias=True)
        (att_dropout): Dropout(p=0.1, inplace=False)
        (output_layer): Linear(in_features=768, out_features=768, bias=True)
      )
      (self_attention_dropout): Dropout(p=0.1, inplace=False)
      (ffn_norm): LayerNorm((768,), eps=1e-05, elementwise_affine=True)
      (ffn): FeedForwardNetwork(
        (layer1): Linear(in_features=768, out_features=2048, bias=True)
        (gelu): GELU()
        (layer2): Linear(in_features=2048, out_features=768, bias=True)
      )
      (ffn_dropout): Dropout(p=0.1, inplace=False)
    )
  )
  (graph_token): Embedding(20, 768)
  (graph_token_virtual_distance): Embedding(1, 24)
  (rbf): RBFLayer()
  (rel_pos_3d_proj): Linear(in_features=256, out_features=24, bias=True)
)
total params: 85662779
args.resume_from_checkpoint /home/jovyan/g2gt_github/src/lightning_logs/checkpoints/last.ckpt
Namespace(accelerator='ddp', accumulate_grad_batches=5, amp_backend='native', amp_level='O2', attention_dropout_rate=0.1, auto_lr_find=False, auto_scale_batch_size=False, auto_select_gpus=False, batch_size=35, beam=1, benchmark=False, c
…
r_ddp=True, resume_from_checkpoint=None, seed=0, stochastic_weight_avg=False, sync_batchnorm=False, terminate_on_nan=False, test=False, tot_updates=700000, tpu_cores=None, track_grad_norm=-1, truncated_bptt_steps=None, val_check_interval=1.0, validate=False, warmup_updates=3000, weight_decay=0.0, weights_save_path=None, weights_summary='top')
 > uspto loaded!
{'num_class': 1, 'loss_fn': <function cross_entropy at 0x7f47511bb170>, 'metric': 'train_loss', 'metric_mode': 'min', 'evaluator': 'none', 'dataset': UsptoDataset(460545), 'max_node': 420}
 > dataset info ends
GraphFormer(
  (atom_encoder): Embedding(4737, 768, padding_idx=0)
  (edge_encoder): Embedding(769, 24, padding_idx=0)
  (rel_pos_encoder): Embedding(512, 24, padding_idx=0)
  (in_degree_encoder): Embedding(512, 768, padding_idx=0)
  (out_degree_encoder): Embedding(512, 768, padding_idx=0)
  (input_dropout): Dropout(p=0.05, inplace=False)
  (input_dropout2d): Dropout2d(p=0.05, inplace=False)
  (gelu): GELU()
  (atom_edge_encoder): Embedding(552, 768, padding_idx=0)
  (centrality_encoder): Embedding(50, 24, padding_idx=0)
  (lpe_linear): Linear(in_features=2, out_features=24, bias=True)
  (lpe_linear3): Linear(in_features=30, out_features=24, bias=True)
  (position): PositionalEncoding(
    (dropout): Dropout(p=0, inplace=False)
  )
  (outp_logits): Linear(in_features=768, out_features=531, bias=True)
  (decoderLayers): ModuleList(
    (0): DecoderLayer(
      (self_attention_norm): LayerNorm((768,), eps=1e-05, elementwise_affine=True)
      (self_mask_attention): MultiHeadAttention(
        (linear_q): Linear(in_features=768, out_features=768, bias=True)
        (linear_k): Linear(in_features=768, out_features=768, bias=True)
        (linear_v): Linear(in_features=768, out_features=768, bias=True)
        (att_dropout): Dropout(p=0.1, inplace=False)
        (output_layer): Linear(in_features=768, out_features=768, bias=True)
      )
      (self_attention_dropout): Dropout(p=0.1, inplace=False)
      (mem_att_sublayer_norm): LayerNorm((768,), eps=1e-05, elementwise_affine=True)
      (self_mem_attention): MultiHeadAttention(
        (linear_q): Linear(in_features=768, out_features=768, bias=True)
        (linear_k): Linear(in_features=768, out_features=768, bias=True)
        (linear_v): Linear(in_features=768, out_features=768, bias=True)
        (att_dropout): Dropout(p=0.1, inplace=False)
        (output_layer): Linear(in_features=768, out_features=768, bias=True)
      )
      (self_mem_attention_dropout): Dropout(p=0.1, inplace=False)
      (ffn_norm): LayerNorm((768,), eps=1e-05, elementwise_affine=True)
      (ffn): FeedForwardNetwork(
        (layer1): Linear(in_features=768, out_features=2048, bias=True)
        (gelu): GELU()
        (layer2): Linear(in_features=2048, out_features=768, bias=True)
      )
      (ffn_dropout): Dropout(p=0.1, inplace=False)
    )
    (1): DecoderLayer(
      (self_attention_norm): LayerNorm((768,), eps=1e-05, elementwise_affine=True)
      (self_mask_attention): MultiHeadAttention(
        (linear_q): Linear(in_features=768, out_features=768, bias=True)
        (linear_k): Linear(in_features=768, out_features=768, bias=True)
        (linear_v): Linear(in_features=768, out_features=768, bias=True)
        (att_dropout): Dropout(p=0.1, inplace=False)
        (output_layer): Linear(in_features=768, out_features=768, bias=True)
      )
      (self_attention_dropout): Dropout(p=0.1, inplace=False)
      (mem_att_sublayer_norm): LayerNorm((768,), eps=1e-05, elementwise_affine=True)
      (self_mem_attention): MultiHeadAttention(
        (linear_q): Linear(in_features=768, out_features=768, bias=True)
        (linear_k): Linear(in_features=768, out_features=768, bias=True)
        (linear_v): Linear(in_features=768, out_features=768, bias=True)
        (att_dropout): Dropout(p=0.1, inplace=False)
        (output_layer): Linear(in_features=768, out_features=768, bias=True)
      )
      (self_mem_attention_dropout): Dropout(p=0.1, inplace=False)
      (ffn_norm): LayerNorm((768,), eps=1e-05, elementwise_affine=True)
      (ffn): FeedForwardNetwork(
        (layer1): Linear(in_features=768, out_features=2048, bias=True)
        (gelu): GELU()
        (layer2): Linear(in_features=2048, out_features=768, bias=True)
      )
      (ffn_dropout): Dropout(p=0.1, inplace=False)
    )
    (2): DecoderLayer(
      (self_attention_norm): LayerNorm((768,), eps=1e-05, elementwise_affine=True)
      (self_mask_attention): MultiHeadAttention(
        (linear_q): Linear(in_features=768, out_features=768, bias=True)
        (linear_k): Linear(in_features=768, out_features=768, bias=True)
        (linear_v): Linear(in_features=768, out_features=768, bias=True)
        (att_dropout): Dropout(p=0.1, inplace=False)
        (output_layer): Linear(in_features=768, out_features=768, bias=True)
      )
      (self_attention_dropout): Dropout(p=0.1, inplace=False)
      (mem_att_sublayer_norm): LayerNorm((768,), eps=1e-05, elementwise_affine=True)
      (self_mem_attention): MultiHeadAttention(
        (linear_q): Linear(in_features=768, out_features=768, bias=True)
        (linear_k): Linear(in_features=768, out_features=768, bias=True)
        (linear_v): Linear(in_features=768, out_features=768, bias=True)
        (att_dropout): Dropout(p=0.1, inplace=False)
        (output_layer): Linear(in_features=768, out_features=768, bias=True)
      )
      (self_mem_attention_dropout): Dropout(p=0.1, inplace=False)
      (ffn_norm): LayerNorm((768,), eps=1e-05, elementwise_affine=True)
      (ffn): FeedForwardNetwork(
        (layer1): Linear(in_features=768, out_features=2048, bias=True)
        (gelu): GELU()
        (layer2): Linear(in_features=2048, out_features=768, bias=True)
      )
      (ffn_dropout): Dropout(p=0.1, inplace=False)
    )
    (3): DecoderLayer(
      (self_attention_norm): LayerNorm((768,), eps=1e-05, elementwise_affine=True)
      (self_mask_attention): MultiHeadAttention(
        (linear_q): Linear(in_features=768, out_features=768, bias=True)
        (linear_k): Linear(in_features=768, out_features=768, bias=True)
        (linear_v): Linear(in_features=768, out_features=768, bias=True)
        (att_dropout): Dropout(p=0.1, inplace=False)
        (output_layer): Linear(in_features=768, out_features=768, bias=True)
      )
      (self_attention_dropout): Dropout(p=0.1, inplace=False)
      (mem_att_sublayer_norm): LayerNorm((768,), eps=1e-05, elementwise_affine=True)
      (self_mem_attention): MultiHeadAttention(
        (linear_q): Linear(in_features=768, out_features=768, bias=True)
        (linear_k): Linear(in_features=768, out_features=768, bias=True)
        (linear_v): Linear(in_features=768, out_features=768, bias=True)
        (att_dropout): Dropout(p=0.1, inplace=False)
        (output_layer): Linear(in_features=768, out_features=768, bias=True)
      )
      (self_mem_attention_dropout): Dropout(p=0.1, inplace=False)
      (ffn_norm): LayerNorm((768,), eps=1e-05, elementwise_affine=True)
      (ffn): FeedForwardNetwork(
        (layer1): Linear(in_features=768, out_features=2048, bias=True)
        (gelu): GELU()
        (layer2): Linear(in_features=2048, out_features=768, bias=True)
      )
      (ffn_dropout): Dropout(p=0.1, inplace=False)
    )
    (4): DecoderLayer(
      (self_attention_norm): LayerNorm((768,), eps=1e-05, elementwise_affine=True)
      (self_mask_attention): MultiHeadAttention(
        (linear_q): Linear(in_features=768, out_features=768, bias=True)
        (linear_k): Linear(in_features=768, out_features=768, bias=True)
        (linear_v): Linear(in_features=768, out_features=768, bias=True)
        (att_dropout): Dropout(p=0.1, inplace=False)
        (output_layer): Linear(in_features=768, out_features=768, bias=True)
      )
      (self_attention_dropout): Dropout(p=0.1, inplace=False)
      (mem_att_sublayer_norm): LayerNorm((768,), eps=1e-05, elementwise_affine=True)
      (self_mem_attention): MultiHeadAttention(
        (linear_q): Linear(in_features=768, out_features=768, bias=True)
        (linear_k): Linear(in_features=768, out_features=768, bias=True)
        (linear_v): Linear(in_features=768, out_features=768, bias=True)
        (att_dropout): Dropout(p=0.1, inplace=False)
        (output_layer): Linear(in_features=768, out_features=768, bias=True)
      )
      (self_mem_attention_dropout): Dropout(p=0.1, inplace=False)
      (ffn_norm): LayerNorm((768,), eps=1e-05, elementwise_affine=True)
      (ffn): FeedForwardNetwork(
        (layer1): Linear(in_features=768, out_features=2048, bias=True)
        (gelu): GELU()
        (layer2): Linear(in_features=2048, out_features=768, bias=True)
      )
      (ffn_dropout): Dropout(p=0.1, inplace=False)
    )
    (5): DecoderLayer(
      (self_attention_norm): LayerNorm((768,), eps=1e-05, elementwise_affine=True)
      (self_mask_attention): MultiHeadAttention(
        (linear_q): Linear(in_features=768, out_features=768, bias=True)
        (linear_k): Linear(in_features=768, out_features=768, bias=True)
        (linear_v): Linear(in_features=768, out_features=768, bias=True)
        (att_dropout): Dropout(p=0.1, inplace=False)
        (output_layer): Linear(in_features=768, out_features=768, bias=True)
      )
      (self_attention_dropout): Dropout(p=0.1, inplace=False)
      (mem_att_sublayer_norm): LayerNorm((768,), eps=1e-05, elementwise_affine=True)
      (self_mem_attention): MultiHeadAttention(
        (linear_q): Linear(in_features=768, out_features=768, bias=True)
        (linear_k): Linear(in_features=768, out_features=768, bias=True)
        (linear_v): Linear(in_features=768, out_features=768, bias=True)
        (att_dropout): Dropout(p=0.1, inplace=False)
        (output_layer): Linear(in_features=768, out_features=768, bias=True)
      )
      (self_mem_attention_dropout): Dropout(p=0.1, inplace=False)
      (ffn_norm): LayerNorm((768,), eps=1e-05, elementwise_affine=True)
      (ffn): FeedForwardNetwork(
        (layer1): Linear(in_features=768, out_features=2048, bias=True)
        (gelu): GELU()
        (layer2): Linear(in_features=2048, out_features=768, bias=True)
      )
      (ffn_dropout): Dropout(p=0.1, inplace=False)
    )
    (6): DecoderLayer(
      (self_attention_norm): LayerNorm((768,), eps=1e-05, elementwise_affine=True)
      (self_mask_attention): MultiHeadAttention(
        (linear_q): Linear(in_features=768, out_features=768, bias=True)
        (linear_k): Linear(in_features=768, out_features=768, bias=True)
        (linear_v): Linear(in_features=768, out_features=768, bias=True)
        (att_dropout): Dropout(p=0.1, inplace=False)
        (output_layer): Linear(in_features=768, out_features=768, bias=True)
      )
      (self_attention_dropout): Dropout(p=0.1, inplace=False)
      (mem_att_sublayer_norm): LayerNorm((768,), eps=1e-05, elementwise_affine=True)
      (self_mem_attention): MultiHeadAttention(
        (linear_q): Linear(in_features=768, out_features=768, bias=True)
        (linear_k): Linear(in_features=768, out_features=768, bias=True)
        (linear_v): Linear(in_features=768, out_features=768, bias=True)
        (att_dropout): Dropout(p=0.1, inplace=False)
        (output_layer): Linear(in_features=768, out_features=768, bias=True)
      )
      (self_mem_attention_dropout): Dropout(p=0.1, inplace=False)
      (ffn_norm): LayerNorm((768,), eps=1e-05, elementwise_affine=True)
      (ffn): FeedForwardNetwork(
        (layer1): Linear(in_features=768, out_features=2048, bias=True)
        (gelu): GELU()
        (layer2): Linear(in_features=2048, out_features=768, bias=True)
      )
      (ffn_dropout): Dropout(p=0.1, inplace=False)
    )
    (7): DecoderLayer(
      (self_attention_norm): LayerNorm((768,), eps=1e-05, elementwise_affine=True)
      (self_mask_attention): MultiHeadAttention(
        (linear_q): Linear(in_features=768, out_features=768, bias=True)
        (linear_k): Linear(in_features=768, out_features=768, bias=True)
        (linear_v): Linear(in_features=768, out_features=768, bias=True)
        (att_dropout): Dropout(p=0.1, inplace=False)
        (output_layer): Linear(in_features=768, out_features=768, bias=True)
      )
      (self_attention_dropout): Dropout(p=0.1, inplace=False)
      (mem_att_sublayer_norm): LayerNorm((768,), eps=1e-05, elementwise_affine=True)
      (self_mem_attention): MultiHeadAttention(
        (linear_q): Linear(in_features=768, out_features=768, bias=True)
        (linear_k): Linear(in_features=768, out_features=768, bias=True)
        (linear_v): Linear(in_features=768, out_features=768, bias=True)
        (att_dropout): Dropout(p=0.1, inplace=False)
        (output_layer): Linear(in_features=768, out_features=768, bias=True)
      )
      (self_mem_attention_dropout): Dropout(p=0.1, inplace=False)
      (ffn_norm): LayerNorm((768,), eps=1e-05, elementwise_affine=True)
      (ffn): FeedForwardNetwork(
        (layer1): Linear(in_features=768, out_features=2048, bias=True)
        (gelu): GELU()
        (layer2): Linear(in_features=2048, out_features=768, bias=True)
      )
      (ffn_dropout): Dropout(p=0.1, inplace=False)
    )
  )
  (layers): ModuleList(
    (0): EncoderLayer(
      (self_attention_norm): LayerNorm((768,), eps=1e-05, elementwise_affine=True)
      (self_attention): MultiHeadAttention(
        (linear_q): Linear(in_features=768, out_features=768, bias=True)
        (linear_k): Linear(in_features=768, out_features=768, bias=True)
        (linear_v): Linear(in_features=768, out_features=768, bias=True)
        (att_dropout): Dropout(p=0.1, inplace=False)
        (output_layer): Linear(in_features=768, out_features=768, bias=True)
      )
      (self_attention_dropout): Dropout(p=0.1, inplace=False)
      (ffn_norm): LayerNorm((768,), eps=1e-05, elementwise_affine=True)
      (ffn): FeedForwardNetwork(
        (layer1): Linear(in_features=768, out_features=2048, bias=True)
        (gelu): GELU()
        (layer2): Linear(in_features=2048, out_features=768, bias=True)
      )
      (ffn_dropout): Dropout(p=0.1, inplace=False)
    )
    (1): EncoderLayer(
      (self_attention_norm): LayerNorm((768,), eps=1e-05, elementwise_affine=True)
      (self_attention): MultiHeadAttention(
        (linear_q): Linear(in_features=768, out_features=768, bias=True)
        (linear_k): Linear(in_features=768, out_features=768, bias=True)
        (linear_v): Linear(in_features=768, out_features=768, bias=True)
        (att_dropout): Dropout(p=0.1, inplace=False)
        (output_layer): Linear(in_features=768, out_features=768, bias=True)
      )
      (self_attention_dropout): Dropout(p=0.1, inplace=False)
      (ffn_norm): LayerNorm((768,), eps=1e-05, elementwise_affine=True)
      (ffn): FeedForwardNetwork(
        (layer1): Linear(in_features=768, out_features=2048, bias=True)
        (gelu): GELU()
        (layer2): Linear(in_features=2048, out_features=768, bias=True)
      )
      (ffn_dropout): Dropout(p=0.1, inplace=False)
    )
    (2): EncoderLayer(
      (self_attention_norm): LayerNorm((768,), eps=1e-05, elementwise_affine=True)
      (self_attention): MultiHeadAttention(
        (linear_q): Linear(in_features=768, out_features=768, bias=True)
        (linear_k): Linear(in_features=768, out_features=768, bias=True)
        (linear_v): Linear(in_features=768, out_features=768, bias=True)
        (att_dropout): Dropout(p=0.1, inplace=False)
        (output_layer): Linear(in_features=768, out_features=768, bias=True)
      )
      (self_attention_dropout): Dropout(p=0.1, inplace=False)
      (ffn_norm): LayerNorm((768,), eps=1e-05, elementwise_affine=True)
      (ffn): FeedForwardNetwork(
        (layer1): Linear(in_features=768, out_features=2048, bias=True)
        (gelu): GELU()
        (layer2): Linear(in_features=2048, out_features=768, bias=True)
      )
      (ffn_dropout): Dropout(p=0.1, inplace=False)
    )
    (3): EncoderLayer(
      (self_attention_norm): LayerNorm((768,), eps=1e-05, elementwise_affine=True)
      (self_attention): MultiHeadAttention(
        (linear_q): Linear(in_features=768, out_features=768, bias=True)
        (linear_k): Linear(in_features=768, out_features=768, bias=True)
        (linear_v): Linear(in_features=768, out_features=768, bias=True)
        (att_dropout): Dropout(p=0.1, inplace=False)
        (output_layer): Linear(in_features=768, out_features=768, bias=True)
      )
      (self_attention_dropout): Dropout(p=0.1, inplace=False)
      (ffn_norm): LayerNorm((768,), eps=1e-05, elementwise_affine=True)
      (ffn): FeedForwardNetwork(
        (layer1): Linear(in_features=768, out_features=2048, bias=True)
        (gelu): GELU()
        (layer2): Linear(in_features=2048, out_features=768, bias=True)
      )
      (ffn_dropout): Dropout(p=0.1, inplace=False)
    )
    (4): EncoderLayer(
      (self_attention_norm): LayerNorm((768,), eps=1e-05, elementwise_affine=True)
      (self_attention): MultiHeadAttention(
        (linear_q): Linear(in_features=768, out_features=768, bias=True)
        (linear_k): Linear(in_features=768, out_features=768, bias=True)
        (linear_v): Linear(in_features=768, out_features=768, bias=True)
        (att_dropout): Dropout(p=0.1, inplace=False)
        (output_layer): Linear(in_features=768, out_features=768, bias=True)
      )
      (self_attention_dropout): Dropout(p=0.1, inplace=False)
      (ffn_norm): LayerNorm((768,), eps=1e-05, elementwise_affine=True)
      (ffn): FeedForwardNetwork(
        (layer1): Linear(in_features=768, out_features=2048, bias=True)
        (gelu): GELU()
        (layer2): Linear(in_features=2048, out_features=768, bias=True)
      )
      (ffn_dropout): Dropout(p=0.1, inplace=False)
    )
    (5): EncoderLayer(
      (self_attention_norm): LayerNorm((768,), eps=1e-05, elementwise_affine=True)
      (self_attention): MultiHeadAttention(
        (linear_q): Linear(in_features=768, out_features=768, bias=True)
        (linear_k): Linear(in_features=768, out_features=768, bias=True)
        (linear_v): Linear(in_features=768, out_features=768, bias=True)
        (att_dropout): Dropout(p=0.1, inplace=False)
        (output_layer): Linear(in_features=768, out_features=768, bias=True)
      )
      (self_attention_dropout): Dropout(p=0.1, inplace=False)
      (ffn_norm): LayerNorm((768,), eps=1e-05, elementwise_affine=True)
      (ffn): FeedForwardNetwork(
        (layer1): Linear(in_features=768, out_features=2048, bias=True)
        (gelu): GELU()
        (layer2): Linear(in_features=2048, out_features=768, bias=True)
      )
      (ffn_dropout): Dropout(p=0.1, inplace=False)
    )
    (6): EncoderLayer(
      (self_attention_norm): LayerNorm((768,), eps=1e-05, elementwise_affine=True)
      (self_attention): MultiHeadAttention(
        (linear_q): Linear(in_features=768, out_features=768, bias=True)
        (linear_k): Linear(in_features=768, out_features=768, bias=True)
        (linear_v): Linear(in_features=768, out_features=768, bias=True)
        (att_dropout): Dropout(p=0.1, inplace=False)
        (output_layer): Linear(in_features=768, out_features=768, bias=True)
      )
      (self_attention_dropout): Dropout(p=0.1, inplace=False)
      (ffn_norm): LayerNorm((768,), eps=1e-05, elementwise_affine=True)
      (ffn): FeedForwardNetwork(
        (layer1): Linear(in_features=768, out_features=2048, bias=True)
        (gelu): GELU()
        (layer2): Linear(in_features=2048, out_features=768, bias=True)
      )
      (ffn_dropout): Dropout(p=0.1, inplace=False)
    )
    (7): EncoderLayer(
      (self_attention_norm): LayerNorm((768,), eps=1e-05, elementwise_affine=True)
      (self_attention): MultiHeadAttention(
        (linear_q): Linear(in_features=768, out_features=768, bias=True)
        (linear_k): Linear(in_features=768, out_features=768, bias=True)
        (linear_v): Linear(in_features=768, out_features=768, bias=True)
        (att_dropout): Dropout(p=0.1, inplace=False)
        (output_layer): Linear(in_features=768, out_features=768, bias=True)
      )
      (self_attention_dropout): Dropout(p=0.1, inplace=False)
      (ffn_norm): LayerNorm((768,), eps=1e-05, elementwise_affine=True)
      (ffn): FeedForwardNetwork(
        (layer1): Linear(in_features=768, out_features=2048, bias=True)
        (gelu): GELU()
        (layer2): Linear(in_features=2048, out_features=768, bias=True)
      )
      (ffn_dropout): Dropout(p=0.1, inplace=False)
    )
  )
  (graph_token): Embedding(20, 768)
  (graph_token_virtual_distance): Embedding(1, 24)
  (rbf): RBFLayer()
  (rel_pos_3d_proj): Linear(in_features=256, out_features=24, bias=True)
)
total params: 112446523
args.resume_from_checkpoint /home/jovyan/g2gt_github/src/lightning_logs/checkpoints/last.ckpt
Validation sanity check: 0it [00:00, ?it/s]len(val_dataloader) 5005
Validation sanity check:   0%|          | 0/2 [00:00<?, ?it/s]Namespace(accelerator='ddp', accumulate_grad_batches=5, amp_backend='native', amp_level='O2', attention
…
